…
type(Y_train): <type 'numpy.ndarray'>
Shape: Y-train: (69999, 2)
Number of positive and negative reviews in traing and validation set 
[  9984.  10016.]
[ 2516.  2484.]
Total 400000 word vectors in Glove 6B 100d.
model fitting - simplified convolutional neural network
____________________________________________________________________________________________________
Layer (type)                     Output Shape          Param #     Connected to                     
====================================================================================================
input_1 (InputLayer)             (None, 1000)          0                                            
____________________________________________________________________________________________________
embedding_1 (Embedding)          (None, 1000, 100)     0           input_1[0][0]                    
____________________________________________________________________________________________________
convolution1d_1 (Convolution1D)  (None, 996, 128)      64128       embedding_1[0][0]                
____________________________________________________________________________________________________
maxpooling1d_1 (MaxPooling1D)    (None, 199, 128)      0           convolution1d_1[0][0]            
____________________________________________________________________________________________________
convolution1d_2 (Convolution1D)  (None, 195, 128)      82048       maxpooling1d_1[0][0]             
____________________________________________________________________________________________________
maxpooling1d_2 (MaxPooling1D)    (None, 39, 128)       0           convolution1d_2[0][0]            
____________________________________________________________________________________________________
convolution1d_3 (Convolution1D)  (None, 35, 128)       82048       maxpooling1d_2[0][0]             
____________________________________________________________________________________________________
maxpooling1d_3 (MaxPooling1D)    (None, 1, 128)        0           convolution1d_3[0][0]            
____________________________________________________________________________________________________
flatten_1 (Flatten)              (None, 128)           0           maxpooling1d_3[0][0]             
____________________________________________________________________________________________________
dense_1 (Dense)                  (None, 128)           16512       flatten_1[0][0]                  
____________________________________________________________________________________________________
dense_2 (Dense)                  (None, 2)             258         dense_1[0][0]                    
====================================================================================================
Total params: 244994
____________________________________________________________________________________________________
Train on 69999 samples, validate on 5000 samples
Epoch 1/10
  128/69999 [..............................] - ETA: 155s - loss: 0.7026 -
…
